project_llm/checkpoint-9/model.safetensors (safetensors, 413296 bytes, 28 tensors)

transformer.h.0.attn.c_attn.bias f4 [6]
000000 fc aa 72 b7 a1 0f 46 39 25 40 49 2d 59 14 56 ae
       -1.4464134e-05 0.00018888574 1.143977e-11 -4.867604e-11
000010 45 bd 96 b8 0f 04 19 b8
       -7.1878116e-05 -3.6481822e-05

transformer.h.0.attn.c_attn.weight f4 [2, 6]
000000 7e 83 be bc 31 30 c9 bc ee 28 fa bb 01 1b fa bb
       -0.02325606 -0.024559112 -0.0076342737 -0.0076326136
000010 12 5e c5 bc 12 bd ad bc a5 dc 92 bb b1 03 57 3c
       -0.024092708 -0.02120832 -0.0044818693 0.013123439
000020 c9 35 75 bc 2a e0 92 ba aa 9e 1d 3d a1 91 87 bc
       -0.014966437 -0.0011205722 0.038481392 -0.016548933

transformer.h.0.attn.c_proj.bias f4 [2]
000000 36 6e ca b5 f5 7d c1 38
       -1.5082248e-06 9.2264185e-05

transformer.h.0.attn.c_proj.weight f4 [2, 2]
000000 51 f6 c9 ba cf 42 7e ba ea f6 6a bd 9f 08 be bc
       -0.0015408491 -0.00096992863 -0.05736438 -0.02319747

transformer.h.0.ln_1.bias f4 [2]
000000 f1 7d 23 38 97 d2 01 38
       3.897952e-05 3.0952124e-05

transformer.h.0.ln_1.weight f4 [2]
000000 80 07 80 3f 09 f1 7f 3f
       1.0002289 0.99977165

transformer.h.0.ln_2.bias f4 [2]
000000 16 d0 87 b8 6e 49 42 38
       -6.476061e-05 4.632159e-05

transformer.h.0.ln_2.weight f4 [2]
000000 2d 02 80 3f 22 00 80 3f
       1.0000664 1.000004

transformer.h.0.mlp.c_fc.bias f4 [8]
000000 26 81 3a b7 c0 e6 3b b7 58 77 dd b7 5f b3 c7 b8
       -1.1116534e-05 -1.1199794e-05 -2.6400827e-05 -9.52247e-05
000010 f5 14 07 b8 a3 f2 ee b7 34 9f b8 b8 61 68 a4 b8
       -3.2206026e-05 -2.8484797e-05 -8.8034576e-05 -7.8395715e-05

transformer.h.0.mlp.c_fc.weight f4 [2, 8]
000000 aa 2e 28 3c cb 08 67 bc a6 4e a8 bb 99 38 77 3c
       0.010265032 -0.0141012175 -0.0051363287 0.0150891775
000010 10 61 d4 3b cd e9 ab bb 16 da 8e 3c be c9 43 3c
       0.0064812973 -0.005246377 0.017437976 0.011949955
000020 2f 0e 83 3b 5e d3 97 3c ab fb 41 3c 72 5a d0 3c
       0.0039994936 0.018533405 0.0118397875 0.025433753
000030 4c 06 94 bc fd e2 a6 bc cc de ec bc b6 25 27 bb
       -0.018069409 -0.020371908 -0.028914832 -0.0025504655

transformer.h.0.mlp.c_proj.bias f4 [2]
000000 f7 a3 c3 b8 a9 58 ff b7
       -9.3288654e-05 -3.0439654e-05

transformer.h.0.mlp.c_proj.weight f4 [8, 2]
000000 3d 07 1e bd 77 19 d7 3c 4c e2 8c bb 31 ac 17 3c
       -0.03858112 0.02625726 -0.0042994376 0.009257362
000010 0a 02 9a ba fd c1 c3 3c 05 18 0a 3c c0 53 32 3a
       -0.0011749875 0.023896212 0.008428578 0.0006802641
000020 ed 45 30 bb cc c8 87 3d ab 45 94 bb e0 9f 32 3d
       -0.0026897148 0.06630096 -0.0045249066 0.0436095
000030 ab fa af 3c 13 ab 87 3b 31 4a 87 3c 57 b3 46 3c
       0.021481832 0.0041402667 0.01651487 0.012127719

transformer.h.1.attn.c_attn.bias f4 [6]
000000 71 d2 28 39 c2 4f 6c 39 e4 a3 35 2e dc 2e a0 ae
       0.00016100124 0.00022536426 4.13002e-11 -7.2842815e-11
000010 32 88 ac 38 1e 5d cb b8
       8.2269675e-05 -9.697139e-05

transformer.h.1.attn.c_attn.weight f4 [2, 6]
000000 d7 ed 32 3c 04 e2 e0 3b 4d 04 b2 bb 71 5d 98 ba
       0.010920963 0.0068628807 -0.0054326416 -0.0011624527
000010 72 77 60 bc bb 1b 04 3b d1 c4 c2 bb 8b eb b5 bc
       -0.013700353 0.002015813 -0.0059438725 -0.022207042
000020 02 b7 b6 ba 44 98 92 3c 5d 4f c9 3b 66 85 9a bb
       -0.0013940039 0.017894872 0.006143494 -0.0047156094

transformer.h.1.attn.c_proj.bias f4 [2]
000000 35 ab d9 b8 e9 2f b2 38
       -0.00010379256 8.4966254e-05

transformer.h.1.attn.c_proj.weight f4 [2, 2]
000000 96 32 f0 3b 03 6b 2b 3c 9e a3 98 3c c9 8f ae bc
       0.007330249 0.010462525 0.018632706 -0.021308796

transformer.h.1.ln_1.bias f4 [2]
000000 5a 40 ca b8 0d c9 d4 38
       -9.644097e-05 0.000101463964

transformer.h.1.ln_1.weight f4 [2]
000000 17 07 80 3f c4 07 80 3f
       1.0002164 1.000237

transformer.h.1.ln_2.bias f4 [2]
000000 bd 52 22 b9 82 e1 1d 39
       -0.00015480346 0.00015056695

transformer.h.1.ln_2.weight f4 [2]
000000 6e 02 80 3f 49 fb 7f 3f
       1.0000741 0.99992806

transformer.h.1.mlp.c_fc.bias f4 [8]
000000 ff eb 1f b9 cc d1 26 b9 90 b2 1f b9 11 eb 24 b9
       -0.00015251337 -0.00015909149 -0.00015229941 -0.00015727828
000010 1a dd 01 37 66 58 21 b9 4c 83 16 b9 12 01 05 39
       7.740478e-06 -0.00015387087 -0.00014354027 0.00012684267

transformer.h.1.mlp.c_fc.weight f4 [2, 8]
000000 2d 90 c2 3c 8a ad bf 3c 9e 5c 58 3c 7c ae 58 3c
       0.023750389 0.02339818 0.013205675 0.013225194
000010 27 63 c9 bc ad 21 f8 ba e3 c7 c5 3b 23 c3 a6 bc
       -0.024583412 -0.0018930935 0.0060357912 -0.02035672
000020 af 29 16 bd 99 40 0b 3d 58 6e 94 ba 1f 19 ab bc
       -0.036660846 0.033997152 -0.0011324389 -0.020886002
000030 22 11 9d 3c 0a 59 9d bb 2f 1b 55 bc d6 f5 47 bd
       0.019173209 -0.004801874 -0.013006969 -0.04881843

transformer.h.1.mlp.c_proj.bias f4 [2]
000000 9d a7 ed b8 a8 52 26 39
       -0.00011332261 0.00015861786

transformer.h.1.mlp.c_proj.weight f4 [8, 2]
000000 a6 d8 5f 3c ed ce 06 bd a8 76 30 3a 5b 83 6b bc
       0.013662493 -0.032912184 0.00067315483 -0.014374579
000010 91 95 6c bc 19 02 52 bc 18 ac 00 bc 6e 16 9d bc
       -0.014439956 -0.012817883 -0.00785353 -0.019175734
000020 8c f6 18 3d 96 c6 26 3c be 60 1d 3c d8 1e 11 bc
       0.0373445 0.0101791825 0.009605585 -0.008857451
000030 9d 18 4f 3c f3 6c 9a bb 21 90 6a bc 86 33 d4 3a
       0.012640146 -0.004712695 -0.01431659 0.0016189672

transformer.ln_f.bias f4 [2]
000000 f8 15 41 b9 25 66 c8 38
       -0.00018414098 9.555769e-05

transformer.ln_f.weight f4 [2]
000000 c5 f8 7f 3f e6 ff 7f 3f
       0.9998897 0.99999845

transformer.wpe.weight f4 [1024, 2]
000000 15 3f a2 3c 3f 59 06 bb 1b b6 12 3d 83 9f 69 bc
       0.01980547 -0.0020499972 0.0358182 -0.014259222
000010 42 8a 8b ba 54 93 58 3b d0 05 c4 bc df 04 25 3c
       -0.0010646062 0.0033046799 -0.023928553 0.010071962
000020 f6 24 17 3c c3 2a 70 bb b9 70 8b 3c 06 28 e8 bc
       0.009225121 -0.0036646582 0.017021524 -0.028339397
000030 7e 05 e3 bc 36 1b 74 bc 12 a4 54 3c 41 79 9c 3b
       -0.02771258 -0.014899066 0.012978571 0.004775197
000040 d8 08 3d 3c 80 87 a0 bc 04 32 42 3c a6 5e 23 bb
       0.011537753 -0.019595861 0.011852745 -0.002492824
000050 8f df 2d 3d 63 49 ee bb 04 46 3e 3c ed 35 79 bc
       0.04244953 -0.007271932 0.011613373 -0.015210611
000060 44 1e 56 3c 84 3d e3 ba 10 9b 17 bc da a2 ed bc
       0.013068739 -0.0017337059 -0.009253278 -0.029008318
000070 4d 1b 09 bd 7c 14 66 ba 1b 06 b2 3c 3f ca ea bb
       -0.0334733 -0.0008776856 0.021731427 -0.007165223
000080 b3 98 e4 3c 01 90 aa 3c c5 21 40 3b 75 3c ec 3a
       0.027904844 0.02082062 0.0029317003 0.0018023389
000090 c9 af dc bb 17 94 1f 3c 55 a7 16 3d d8 47 85 39
       -0.0067348224 0.009739897 0.036780674 0.00025421265
0000a0 d4 42 04 3d 5d 53 04 3c 98 7c ce bb a6 65 59 3d
       0.032290295 0.008076516 -0.006301474 0.053075455
0000b0 e4 08 d0 bb df d3 d0 3c 70 9b 50 bb 4f 19 cf bc
       -0.006348716 0.025491653 -0.003183093 -0.025280623
0000c0 a0 69 d4 3c 42 05 09 bd 16 d5 c2 bc 8d 68 0e 3a
       0.025929272 -0.03345228 -0.023783248 0.00054324494
0000d0 79 72 57 3c ea 47 42 bd 57 d2 da 3b fc 2c b2 bc
       0.013149851 -0.047431864 0.0066779065 -0.021749966
0000e0 72 b9 07 bd 3a 66 33 3d 1c d4 6b 3b 24 92 92 3c
       -0.03313584 0.043798663 0.0035984581 0.01789195
0000f0 fc 39 81 3c 55 ed d2 3b 36 e3 11 bb 38 03 88 ba
       0.01577472 0.0064369836 -0.0022260672 -0.0010376936
000100 3e f8 91 3a 87 d7 f9 bb bb bd 30 bc 1b be 45 bc
       0.0011136604 -0.00762457 -0.010787423 -0.01206925
000110 45 5c 74 3c 76 e2 52 3c c0 06 fb bb 69 34 8a bc
       0.014914577 0.012871375 -0.007660717 -0.016870694
000120 8f 06 34 bc aa fc 49 3d 7c 41 4a ba 27 70 14 3d
       -0.010987892 0.049313225 -0.00077154464 0.03623977
000130 ce 53 e3 3b 5a 11 0c 3b 3d 6e 76 3c b4 11 8a 3c
       0.0069374805 0.0021372647 0.015040931 0.016854145
000140 54 ee 84 ba f2 c8 00 3c f4 6c 2b bd a4 db 92 3c
       -0.0010141828 0.007860409 -0.041851953 0.017926998
000150 9d 81 77 3c f8 ea 1b bc db 49 96 bc f3 c7 ee b9
       0.015106586 -0.00951647 -0.018345764 -0.0004554387
000160 e8 91 8b bb 52 88 4d bc 61 a7 47 bc 0c 39 04 bd
       -0.0042593367 -0.012544708 -0.012185902 -0.032280967
000170 a9 7e 87 3b 7b d9 80 3a 2e 6b f9 bc d8 04 37 3d
       0.004134972 0.0009830439 -0.030446615 0.044682354
000180 9c 57 9b 3c 1a 21 29 bc 38 3a 43 bb 7f d1 3c 3b
       0.018962674 -0.010322833 -0.002978934 0.0028811393
000190 b4 68 bb bb 6a 59 15 bc 37 c9 a1 b9 94 87 5b 3c
       -0.0057192687 -0.009115556 -0.0003085823 0.013399024
0001a0 25 f9 2d b9 93 80 b5 3b 5c 2c 80 3c a7 4c 1f bc
       -0.00016591379 0.005539009 0.015646152 -0.009722865
0001b0 eb be b9 3c a1 55 00 bc 38 67 40 3c 0d 85 ab 3c
       0.022674045 -0.0078329155 0.011743359 0.020937467
0001c0 34 06 e5 3c 29 84 af 36 e6 cc 2d 3a 55 cb a7 3c
       0.02795706 5.230792e-06 0.00066299585 0.020482698
0001d0 fb fe 5a bc b3 67 9c bb 1f ad 02 bc 21 c0 5b bc
       -0.013366456 -0.004773104 -0.007975846 -0.013412506
0001e0 4a ea 58 3d 5f 7d 3f 3c e5 59 5b 3c c6 6e 37 bc
       0.05295781 0.011687606 0.013388132 -0.011195844
0001f0 58 50 f5 bb 84 d6 f2 3b b4 9d f6 3b e1 b5 11 3b
       -0.0074863844 0.007410826 0.007526124 0.0022233652
000200 aa c4 68 3c b0 9e b5 bc 21 b5 ac 3c 57 e3 b9 3c
       0.014207045 -0.022170395 0.021082463 0.022691412
000210 5c 61 05 bc 60 d3 3c bc 8f 45 9c bc a3 49 11 bd
       -0.008140888 -0.011525005 -0.019076137 -0.035470616
000220 4f 65 99 3c 3f 13 1a bd af 75 ba 3b ea 2f fb bb
       0.018725066 -0.03761601 0.0056902985 -0.007665624
000230 81 a1 5b bb 82 8e 64 3c 50 c0 3a 3c 29 06 88 bc
       -0.0033513012 0.013949992 0.01139839 -0.0166045
000240 53 b7 64 bc 06 ef a1 3b 46 e0 d7 bc d9 52 ca bc
       -0.0139597235 0.004941824 -0.02635206 -0.024697708
000250 de c8 f0 bb e9 11 42 3c 9b dc 47 bc 80 19 00 bd
       -0.007348164 0.01184509 -0.012198593 -0.03127432
000260 37 10 8d 3c 50 98 3e bc e0 0f 54 3c f7 a6 a2 bc
       0.017219646 -0.011632994 0.012943238 -0.019855006
000270 6d 2d 25 bd 30 4f a1 3c b2 f5 a8 3c 95 bb 8a bc
       -0.040326525 0.01969108 0.02062497 -0.01693515
000280 1d a2 d1 bb 64 43 a9 3b 7f 3b 1b 3d b9 a3 02 bd
       -0.0063974992 0.0051655043 0.037898537 -0.03189442
000290 d9 77 50 b9 f4 49 ed 3c 84 3b 89 3b 31 1d 1a bb
       -0.00019881073 0.028965928 0.004188003 -0.0023515935
0002a0 92 a3 46 3c 6d 1a 8b bc 7f ed 89 3c 8b 6e 70 3a
       0.012123959 -0.016980374 0.01683688 0.00091717456
0002b0 9e d4 ad 39 4b d7 2b 3d 8f fd 14 3c 42 d1 cd 3c
       0.00033155543 0.041953366 0.009093656 0.025124196
0002c0 7b 1d 9c bb 50 e4 18 bb f0 82 40 bc b9 f2 9c 3b
       -0.0047642565 -0.0023329444 -0.011749968 0.004789677
0002d0 c3 57 97 bb cb de 3b bc ca 27 29 3c 4b 39 05 3c
       -0.0046186163 -0.011466692 0.010324428 0.0081313355
0002e0 36 f3 a5 3c 7e 23 3b 3d de fa 13 bc 22 18 30 bb
       0.020257574 0.045688145 -0.009031979 -0.0026869853
0002f0 f9 4c ec bc c7 5c 7e 3c d4 94 a4 3c 7b 50 04 3c
       -0.028845297 0.0155250495 0.020090498 0.008075829
000300 7d 45 54 3c 1b 2d 9f 3b 5b 0e 0b bc 39 e8 8f bc
       0.01295602 0.004857672 -0.008487309 -0.017566787
000310 fd a3 e9 3c 7b 1e b4 3c 7c 9c 80 bc 90 26 98 bc
       0.028520579 0.02198719 -0.015699618 -0.018573076
000320 89 db d0 3c 41 84 b4 3c 69 bd 5d bc 41 48 45 bb
       0.025495308 0.02203572 -0.013533928 -0.003010288
000330 6c 64 f0 3c 98 84 bf 3c 01 c0 00 3d f8 fd 51 bd
       0.02934476 0.023378655 0.03143311 -0.051267594
000340 d4 46 5a 3c 59 c5 d0 b9 00 02 05 3c 54 16 8d bb
       0.013322551 -0.00039819887 0.008118153 -0.0043056402
000350 a5 f5 d6 3a 0e e0 16 bc 2b 3d 53 bd 75 e8 65 bc
       0.0016400112 -0.009208692 -0.051572006 -0.014032473
000360 25 60 d1 3b f6 c2 83 bc bd 9c cc 3c 66 0e e1 3c
       0.006389635 -0.016084176 0.024977082 0.027472686
000370 bb 66 17 bd e6 ed 4e bd 46 8e 22 bd ba 7e 9c 3a
       -0.036963206 -0.050519846 -0.039686464 0.0011939623
000380 66 b4 c8 3c e0 4d c1 3b 33 79 3e bc 4d ff 15 3c
       0.024500083 0.005899176 -0.011625576 0.009155107
000390 87 9c 13 bd d4 05 5f 3a b3 b6 ad bb 97 fe 06 3d
       -0.036037948 0.00085076434 -0.0053013205 0.03295764
0003a0 db d4 90 bc ec 64 62 bc ea 60 7d 3a 86 ef c7 bc
       -0.017679622 -0.013818007 0.00096656254 -0.024406206
0003b0 8c bc f4 ba 4f 8e 7e 3b 87 6f 96 3b 4b 75 38 bc
       -0.0018671914 0.0038842147 0.004590932 -0.011258434
0003c0 32 4a 83 bb fd 3c 70 bb db 04 31 3a 02 82 07 bc
       -0.0040066475 -0.0036657446 0.00067527377 -0.008270742
0003d0 d0 3b 92 ba 91 82 95 3b af 7f 64 bc 66 c0 b6 bc
       -0.0011156742 0.004562684 -0.013946458 -0.02230854
0003e0 55 60 74 3c 36 85 0d 3d ff 69 9d 3b 5b 3a c8 bc
       0.0149155455 0.034550868 0.0048038955 -0.024441889
0003f0 c4 d1 88 bc 19 d4 11 3c 35 b8 a1 3b f4 a8 6d ba
       -0.016701587 0.008900666 0.0049352893 -0.00090660085

transformer.wte.weight f4 [50257, 2]
000000 e0 21 61 3b e9 2f 1d bc de c5 8e 3c 28 00 d2 3b
       0.0034352466 -0.009593942 0.017428335 0.00640871
000010 03 d6 1f bd 14 d1 e8 bb 49 07 52 3c 75 86 09 3c
       -0.039022457 -0.007105002 0.01281912 0.008393873
000020 98 0a 24 3c e2 b8 a3 3b 6c 30 0e 3c 71 64 87 3c
       0.010012291 0.004996405 0.008678537 0.016527386
000030 f1 7a b2 bb 0a e2 d7 3c e1 cd 92 3c bb 8d dd bc
       -0.0054467847 0.026352901 0.017920436 -0.027045121
000040 ae ca 0b 3d 12 07 73 bc 01 4c aa 3c 9c a3 0a 3c
       0.034128837 -0.014833229 0.020788195 0.008461859
000050 09 84 71 bd 86 65 60 3c f9 a4 82 3c e2 16 cb 3c
       -0.05896381 0.01369608 0.015947806 0.024791185
000060 12 6d cf 3c 77 20 19 bd 4a 54 0a bd e1 62 86 3b
       0.025320563 -0.037384477 -0.03377179 0.0041011428
000070 33 56 5e bc 31 b0 8c 3c 37 65 4c bc 7f 9d ca bc
       -0.013570356 0.017173858 -0.012475303 -0.024733303
000080 ea 1a 4f 3c 08 10 da bc 13 0e 79 3c 78 aa b5 bb
       0.012640694 -0.026618972 0.015201109 -0.005544003
000090 ed 7f 37 3d c4 02 83 bc 93 a0 08 bd 43 79 86 bb
       0.044799734 -0.01599253 -0.03335626 -0.004103811
0000a0 9c 3b 1b bd 6b 54 2a bc b9 fb a9 bc 03 14 87 bc
       -0.037898645 -0.010396103 -0.020749914 -0.016489035
0000b0 c1 cf 7f bc e0 84 b1 bc 4e 8d 4d 3c 65 1e f8 bb
       -0.015613497 -0.021669805 0.012545897 -0.0075719827
0000c0 fd 48 1e bd 36 db 01 3d 09 8d 87 3c 27 b9 d5 3b
       -0.038643826 0.031703196 0.016546743 0.006522316
0000d0 f0 fe 21 bc 97 46 19 3c 46 fd c8 3c 72 22 7b bc
       -0.009887442 0.009355209 0.024534833 -0.015328037
0000e0 e4 e2 82 3b ca c1 eb bc e1 bc 64 3d 13 6d 9b bc
       0.0039943326 -0.02877893 0.05584419 -0.01897291
0000f0 9f ad e3 bc d3 ef 35 bd 0c 2f 20 bc ca 29 17 3d
       -0.02779275 -0.044418167 -0.009776842 0.036905088
000100 dd eb 05 bc 7b 27 63 3c 9c 63 28 3b 3d c9 80 3c
       -0.00817391 0.013864393 0.0025694137 0.015720958
000110 01 50 d1 3b 65 82 81 3c c0 36 3b 3d ca 3a 51 bb
       0.006387711 0.015809247 0.04570651 -0.003192591
000120 83 68 5e 3c dd 3f 60 bc a0 82 48 bd 42 ce f8 3c
       0.013574722 -0.013687101 -0.0489527 0.030371789
000130 f0 d3 99 bc d9 21 82 ba 11 d9 12 3c a0 85 15 3d
       -0.018777817 -0.00099283 0.0089628855 0.036504388
000140 96 22 78 3b 94 1f a4 3b 82 71 5a 3c 33 84 78 3b
       0.0037862412 0.005008647 0.013332726 0.0037920594
000150 f1 57 55 3c 9d d1 88 bb a9 42 37 ba 46 bd 8d 3c
       0.013021455 -0.0041753785 -0.0006990829 0.017302167
000160 ab a9 94 3c 97 66 79 3c 93 b6 93 bc 0b a1 c3 3b
       0.01814731 0.015222213 -0.018031394 0.0059701256
000170 6e 6a b5 ba b2 86 21 bc f2 90 a8 bc ae 70 75 bc
       -0.0013840923 -0.009858774 -0.020576928 -0.014980478
000180 00 27 7d bd 0f 4e 78 3c 4b 39 8a bc 92 fd 63 3c
       -0.06180477 0.015155329 -0.016873023 0.013915436
000190 d0 a6 b9 3c 3a 2e ba bc 3d fc 1e bc ea 95 a4 3a
       0.02266255 -0.02272712 -0.009703693 0.0012556885
0001a0 bc a0 ec bc 20 00 08 39 0b 75 09 bc 3b 01 cd 3b
       -0.028885238 0.00012970017 -0.008389722 0.00625625
0001b0 c9 9a 1f bd a8 45 0b bd 0e 8f 27 3c 86 e1 60 3c
       -0.038965974 -0.034001976 0.010226978 0.013725644
0001c0 f1 bd 2c 3c 95 57 1d bc 3b 23 b5 3c 10 a1 15 bc
       0.010543332 -0.009603401 0.022111526 -0.009132639
0001d0 f4 a5 92 3a 07 67 07 3c 6c c9 67 3c 69 ef 9b 3c
       0.0011188374 0.00826431 0.014147144 0.019035058
0001e0 8a ca 10 bc 73 e9 70 3c b0 a6 c4 bc 95 3c 22 3d
       -0.008837352 0.014704096 -0.024005264 0.039608557
0001f0 e7 c6 64 bc 65 9b 67 bc 7d db 6e 3b d9 02 92 3b
       -0.013963438 -0.01413617 0.0036446743 0.004455906
000200 99 32 27 bd f4 fb 84 ba 09 56 2b bd 70 4a cf 3c
       -0.040819738 -0.0010145889 -0.041830096 0.02530405
000210 3d 38 f2 bc cb 97 e0 3c 87 c0 f3 3b 54 53 be 3c
       -0.029567832 0.02741613 0.0074387225 0.023233093
000220 73 0f e1 3b 55 38 66 bc c4 d0 32 bc 6d 0b 14 3d
       0.006868297 -0.014051517 -0.010914031 0.03614371
000230 55 4a df 3b c9 0d 0b 3c d3 03 35 ba 2d cc 1d bd
       0.006814281 0.008487173 -0.0006905172 -0.038524795
000240 56 61 e8 3c 9b 45 5b 3c c5 c2 fd b9 7e 5d ad bc
       0.028366726 0.013383294 -0.00048401035 -0.021162745
000250 2e ac f0 b9 17 2c e9 3c 27 dc 9d 3a b4 6d 28 bc
       -0.0004590465 0.028463406 0.001204376 -0.0102800615
000260 a6 f2 03 3c f5 40 0b 3c ad 5e b4 b9 34 96 d8 3c
       0.008053457 0.008499374 -0.00034402814 0.02643881
000270 d8 86 11 3c a1 f3 41 3c 23 25 1e 3d 99 77 00 3c
       0.008882247 0.011837871 0.038609635 0.007841014
000280 69 58 8b 3c 94 05 b9 b8 6e 64 2e 3d 37 2e f4 3b
       0.01700993 -8.8225264e-05 0.042576246 0.0074517983
000290 cd 46 c0 bb ec 83 cd bb bf 87 a2 3b c6 91 95 bc
       -0.005867815 -0.00627183 0.00496003 -0.018257987
0002a0 d1 3c 0a 3c a7 93 29 3d c0 f4 91 3b 45 ce d1 3c
       0.008437351 0.041400578 0.0044542253 0.025611052
0002b0 79 17 be bc cd c2 b1 bb a3 37 26 3c d3 1d 35 3c
       -0.023204552 -0.0054248334 0.010145101 0.011054474
0002c0 42 4c bf 3c b5 af 82 bc 8c d4 02 ba 42 f0 0e 3c
       0.023351792 -0.015952924 -0.00049907784 0.008724274
0002d0 10 18 9c 3c ae bb 93 bc 5f 17 9b bc 13 6b 35 3c
       0.019054443 -0.018033829 -0.018932043 0.011072892
0002e0 4c 3c a5 bb 6b 32 3a bc 1c 03 c9 bc 56 00 b6 bb
       -0.0050425883 -0.01136456 -0.024537615 -0.0055542393
0002f0 a5 f6 8e 3c a4 d6 18 bc 00 21 1d bb c2 32 3e 3c
       0.017451594 -0.009328518 -0.0023975968 0.011608781
000300 be 3c 81 bc b6 1b 08 3b 6c 00 af bc 31 50 17 3b
       -0.015776034 0.002076847 -0.021362506 0.002308857
000310 62 27 ec bb 96 e8 d2 3c a4 54 74 bc 08 7c af bc
       -0.0072068432 0.025745671 -0.014912758 -0.021421447
000320 66 36 89 bc 79 b0 b8 3c 86 45 21 bb 1b 3e 2e 3b
       -0.016749572 0.022545086 -0.002460809 0.002658731
000330 de 5c 83 bc 50 91 00 bc dd 07 5b bb 3d 13 b7 bc
       -0.016035493 -0.007847145 -0.0033421435 -0.02234804
000340 4c 92 8f 3c 51 b5 06 bc e8 4a ed ba 92 15 5a bc
       0.017525814 -0.00822194 -0.0018103989 -0.013310807
000350 17 b7 cf 3c 8b 03 38 38 58 5b 0a 3d 17 c2 f6 39
       0.025355859 4.387232e-05 0.03377852 0.00047065385
000360 73 dd 49 bc 7d 41 17 bd 23 38 98 bc d4 28 18 bb
       -0.012320864 -0.03692769 -0.018581456 -0.0023217695
000370 68 86 04 3d 2b 39 cb 3c 0c f5 cd ba 2d 3d 03 3d
       0.032354742 0.024807533 -0.0015713288 0.032040764
000380 c6 de 06 bd f7 0c 40 3c c8 b1 13 bd 8d 79 4e bb
       -0.032927297 0.011721841 -0.036058217 -0.0031505555
000390 79 f9 74 bc 8c 1f 07 bc 65 fb c2 bc aa f6 20 3d
       -0.014952057 -0.008247267 -0.023801515 0.039297737
0003a0 dd d3 2f 3d 81 c0 45 bc ff 23 9d 3c 61 e9 98 3a
       0.042926658 -0.012069822 0.019182203 0.0011666232
0003b0 99 56 b5 3b 2a bb e1 b7 2f fb 1d 3c b2 78 13 3d
       0.005534005 -2.6909245e-05 0.009642406 0.036003776
0003c0 8a 2b 70 bc f6 c9 c2 3c ec a0 b3 bb b2 1a 04 bc
       -0.014658818 0.023777943 -0.00548183 -0.008063005
0003d0 76 55 78 bc 0b 03 98 3c bf fa 0d bb 91 d9 4e 3d
       -0.015157094 0.018556139 -0.002166435 0.050500456
0003e0 ac 5c f3 bc a8 b3 25 3d 21 87 80 bb da c2 a7 bb
       -0.029707275 0.040454537 -0.0039223586 -0.0051196637
0003f0 d7 b9 1f 3c 7a 52 a1 bc f9 f6 b2 3b cc 04 14 3b
       0.0097488975 -0.019692648 0.0054615703 0.0022585867
